models/hand_model_unity.tflite (tflite, 77248 bytes, 8 tensors)

arith.constant f4 [5, 32]
-0.23519602 0.17344832 -0.14674096 -0.043616947 -0.22138162 0.041369352 0.50900614 0.44148538
-0.14730486 -0.5810827 0.028063772 -0.6061629 0.20797083 0.18463606 -0.46595907 -0.053072747
-0.6464127 -0.08426317 0.4097154 0.082816675 -0.45428196 -0.32858613 0.1829561 -0.67329615
-0.102765106 0.06915674 -0.14172511 -0.7970668 -0.44660234 -0.41504785 0.46001458 -0.01667499
0.009315539 -0.4267836 -0.09751569 -0.49877205 0.62837803 -0.112500235 -0.4074727 -0.6207069
-0.3425996 -0.3793933 0.14156799 0.28125578 0.013173457 -0.7295532 0.004794907 -0.39846012
0.27988535 0.32226688 -0.79008734 0.04250253 0.15840301 0.4371008 -0.2135299 0.41197848
-0.61689836 -0.041734327 0.54048187 -0.016393105 0.44530624 0.7591206 0.47330582 -0.23539875
-0.33632624 0.056909144 0.64197934 0.4634869 -0.21593256 0.702575 -0.18590598 -0.03344138
0.0067391573 0.6054099 0.053712916 0.49374166 -0.85076547 -0.59303683 -0.31923395 -0.14986973
0.07417727 0.5023211 -0.6538549 0.5380016 -0.350907 -0.3411085 -0.42529294 -0.36082312
0.23675758 0.18038146 -0.30229062 0.33068997 -0.6619415 -0.23767683 -0.33226603 -0.050398506
0.063640125 -0.21601178 -0.31963938 0.32236698 -0.4503243 -0.19491564 -0.25043148 -0.67079794
0.5006616 0.20992893 -0.1655309 -0.25649187 -0.40317938 0.2104785 0.25626317 0.3489844
-0.06665172 -0.49235108 -0.28073278 0.25808945 -0.6122284 0.16994129 -0.2573802 0.45322102
-0.21058491 0.53417945 -0.25544703 -0.35116303 0.4300777 -0.5718698 0.034665756 0.63687587
0.44262663 0.30002445 0.12379498 -0.58415186 0.4633184 -0.012416174 0.2597024 -0.07503218
-0.20921025 -0.4422531 -0.4531153 -0.2606782 0.30599794 -0.34299257 0.11420859 -0.18050571
0.5758957 -0.33160952 -0.2776092 0.24709253 0.43153545 -0.38208523 0.3739373 -0.08982249
0.18693295 -0.29780796 0.61540204 0.36825374 0.18536542 0.15549386 -0.44245878 -0.48966387
00000000: 3ad7 70be 709c 313e 4343 16be afa7 32bd
00000010: ddb1 62be e972 293d 3a4e 023f 5f0a e23e
00000020: 16d7 16be d6c1 14bf ffe5 e53c 7e2d 1bbf
00000030: 4ef6 543e 3c11 3d3e 3092 eebe cf62 59bd
00000040: 4d7b 25bf 2b92 acbd 38c6 d13e ca9b a93d
00000050: a597 e8be 713c a8be d858 3b3e 235d 2cbf
00000060: 8376 d2bd 0da2 8d3d 6320 11be 920c 4cbf
00000070: 10a9 e4be 2781 d4be 0887 eb3e fd99 88bc
00000080: 34a0 183c 6183 dabe 4eb6 c7bd 0d5f ffbe
00000090: 62dd 203f 8666 e6bd 43a0 d0be a6e6 1ebf
000000a0: 3769 afbe d73f c2be 33f7 103e c200 903e
000000b0: 7cd5 573c 00c4 3abf 981e 9d3b f702 ccbe
000000c0: 224d 8f3e 2a00 a53e 2a43 4abf 2217 2e3d
000000d0: 6634 223e adcb df3e 95a7 5abe d8ee d23e
000000e0: 0ded 1dbf 9df1 2abd 055d 0a3f d54a 86bc
000000f0: 2eff e33e ba55 423f 2455 f23e 5f0c 71be
00000100: f432 acbe 9019 693d c258 243f 284e ed3e
00000110: 6d1d 5dbe f5db 333f 235e 3ebe d4f9 08bd
00000120: 26d4 dc3b 25fc 1a3f 1302 5c3d b5cb fc3e
00000130: c4cb 59bf 43d1 17bf a272 a3be 7377 19be
00000140: 41ea 973d 1e98 003f 0963 27bf 79ba 093f
00000150: 15aa b3be c6a5 aebe ffbf d9be cfbd b8be
00000160: 9470 723e ebb5 383e d6c5 9abe 3250 a93e
00000170: 0075 29bf 8e61 73be c61e aabe aa6e 4ebd
00000180: c155 823d 3132 5dbe c6a7 a3be 490d a53e
00000190: e890 e6be f797 47be 8e38 80be 6ab9 2bbf
000001a0: 5c2b 003f 9cf7 563e ef80 29be e752 83be
000001b0: 876d cebe ad87 573e ed34 833e 15ae b23e
000001c0: b280 88bd 7115 fcbe 35bc 8fbe 4d24 843e
000001d0: 00bb 1cbf 1705 2e3e 56c7 83be 960c e83e
000001e0: 92a3 57be fcbf 083f f4c9 82be a4cb b3be
000001f0: 2533 dc3e 0f66 12bf aefd 0d3d 4c0a 233f
00000200: f59f e23e ce9c 993e 3988 fd3d fa8a 15bf
00000210: 1238 ed3e 356d 4bbc b7f7 843e 79aa 99bd
00000220: 363b 56be 006f e2be bbfe e7be 9d77 85be
00000230: c3ab 9c3e b99c afbe 31e6 e93d 7dd6 38be
00000240: e76d 133f b9c8 a9be cb22 8ebe d305 7d3e
00000250: 37f2 dc3e ada0 c3be b674 bf3e dbf4 b7bd
00000260: 5a6b 3f3e 497a 98be fd8a 1d3f c18b bc3e
00000270: 6fd0 3d3e c839 1f3e f589 e2be 39b5 fabe

arith.constant1 f4 [32, 64]
0.17706673 0.047000445 -0.08853803 -0.043579824 0.12665702 -0.03174074 -0.07188008 -0.10762541
-0.29013246 -0.24549025 -0.31488088 0.21749029 0.15015759 -0.23997629 0.11051673 0.20640996
-0.092719406 -0.17901239 0.13746122 -0.40121838 0.08531281 0.5033042 -0.2131683 0.025981423
0.04163114 0.077564344 -0.109904915 0.019202808 -0.12688625 -0.014613175 0.63360685 -0.27387303
0.122077756 0.08332367 -0.33464077 0.0806809 0.5652571 -0.03303902 -0.08889047 -0.12382543
-0.0009873766 -0.42821455 0.26010874 0.14418307 0.0814662 -0.015672 0.017450342 0.2809849
-0.11078741 0.22727707 -0.5087802 0.21455443 0.03999084 -0.054342452 0.2869063 0.2753435
0.14820842 -0.13656758 -0.13437058 0.18417525 -0.12552762 -0.16673931 -0.41547802 -0.010292082
0.31777477 0.15530956 0.30547914 0.17590815 0.15015593 0.0074035414 0.21407402 -0.04327718
0.18392587 0.24773888 0.06969694 0.4147572 0.25432265 -0.042031337 -0.47956726 0.16829322
-0.076485835 -0.21801215 -0.37105337 0.004841162 0.039842512 0.21207277 0.078996964 0.057161048
-0.03868325 0.13513248 -0.14187731 -0.15951672 0.04183664 0.45861623 0.25613397 -0.13280722
-0.29480582 0.0873366 0.15982412 0.10897063 0.412565 -0.032142963 -0.01859344 -0.0852523
0.00081968633 0.1659764 0.35014787 0.12282524 -0.011862604 0.18640943 0.047987897 -0.19768593
0.11492484 0.3371268 0.2166747 0.35439086 -0.04984382 0.008721166 0.19217631 0.42311606
0.2504618 -0.12856485 -0.1620154 0.10615211 -0.047680814 -0.1673406 -0.14841056 -0.016681144
0.18783033 -0.19562462 0.072092935 0.29367265 -0.35131994 0.2200537 -0.023100004 0.12683527
-0.39434713 0.03459964 0.16570826 0.1222185 0.21541731 0.00066948525 -0.17797822 0.14816111
0.27746356 -0.13507171 -0.13096033 0.07184523 0.13138568 0.18535267 0.1580429 -0.42765674
-0.27086762 -0.5473617 -0.017296124 0.1604845 -0.07157203 -0.24353768 -0.38680604 -0.1674803
-0.0038434076 -0.37800008 -0.05734615 -0.5237039 0.03970371 -0.4312847 0.29571274 -0.08267241
0.17297071 0.31878364 -0.27647448 -0.331153 -0.023841476 0.30034292 -0.059718054 0.021105146
-0.36152276 0.19879347 -0.04797979 0.09929712 -0.14265956 -0.33668238 0.179583 0.13072261
-0.3202058 0.14755142 0.15639418 0.22772065 -0.020640833 -0.4301947 0.0064963317 0.13138208
0.13211024 -0.10667447 0.1252706 0.4284266 0.18142092 0.21001059 -0.18061347 0.18484311
-0.5882053 0.60116225 0.22613859 0.14358193 0.00774201 0.2851947 -0.16074178 0.05099823
0.40826604 -0.28875083 -0.16629186 -0.007162822 -0.034954026 -0.43212527 0.16469136 -0.051779132
-0.54518586 -0.032468256 0.17810696 0.20317122 -0.36843106 0.16519393 -0.5100785 0.40902033
0.3322778 -0.1213484 0.31648767 0.050935403 -0.5737675 -0.032108456 0.07414352 0.21529862
-0.22751774 -0.20256147 -0.24461234 0.089860484 0.28779575 -0.062380582 0.06911373 -0.06608938
-0.055290192 -0.010619783 0.026427172 -0.26072443 -0.19776459 0.12475148 -0.10325873 -0.07634835
-0.03054939 0.45696113 0.06668366 0.008983446 0.14687239 -0.3428293 0.04727325 0.24076809
00000000: fb50 353e 8a83 403d 6d53 b5bd c280 32bd
00000010: 61b2 013e 9402 02bd dd35 93bd b66a dcbd
00000020: 3e8c 94be cc61 7bbe 1138 a1be c6b5 5e3e
00000030: e9c2 193e 58bc 75be 9856 e23d 225d 533e
00000040: ace3 bdbd 064f 37be a2c2 0c3e 7f6c cdbe
00000050: 7cb8 ae3d 8bd8 003f ca48 5abe fed6 d43c
00000060: 6a85 2a3d 0eda 9e3d d415 e1bd 354f 9d3c
00000070: 78ee 01be 196c 6fbc 0f34 223f 1639 8cbe
00000080: e703 fa3d 9aa5 aa3d 0956 abbe 073c a53d
00000090: b0b4 103f ec53 07bd 350c b6bd 3098 fdbd
000000a0: dc6a 81ba f03e dbbe f92c 853e baa4 133e
000000b0: c0d7 a63d 9162 80bc 05f4 8e3c 41dd 8f3e
000000c0: 82e4 e2bd 52bb 683e 6b3f 02bf 28b4 5b3e
000000d0: 6fcd 233d 3196 5ebd 62e5 923e d3f9 8c3e
000000e0: f3c3 173e 5fd8 0bbe 7198 09be 7098 3c3e
000000f0: 508a 00be b6bd 2abe 89b9 d4be 1fa0 28bc
00000100: 60b3 a23e 7809 1f3e c367 9c3e 4421 343e
00000110: 7ac2 193e 6899 f23b 3836 5b3e 6a43 31bd
00000120: 1057 3c3e 43af 7d3e 45bd 8e3d 0e5b d43e
00000130: 9436 823e 0d29 2cbd d789 f5be 0f55 2c3e
00000140: 9ba4 9cbd 943e 5fbe b5fa bdbe 9ca2 9e3b
00000150: e731 233d 9b29 593e 29c9 a13d b421 6a3d
00000160: 5472 1ebd 2b60 0a3e 4948 11be 5a58 23be
00000170: e65c 2b3d bfcf ea3e fe23 833e 9efe 07be
00000180: caf0 96be 88dd b23d efa8 233e fe2b df3d
00000190: b83b d33e 57a8 03bd 4551 98bc c298 aebd
000001a0: 38e0 563a b8f5 293e 9546 b33e cd8b fb3d
000001b0: 5e5b 42bc 1de2 3e3e f58e 443d 2e6e 4abe
000001c0: b75d eb3d e29b ac3e f9df 5d3e b872 b53e
000001d0: 0929 4cbd 39e3 0e3c dec9 443e aba2 d83e
000001e0: 873c 803e 81a6 03be 5de7 25be 4766 d93d
000001f0: f54c 43bd 565b 2bbe f0f8 17be e5a6 88bc
00000200: 9856 403e d251 48be 76a5 933d 435c 963e
00000210: 35e0 b3be c255 613e 383c bdbc 1be1 013e
00000220: dee7 c9be 5ab8 0d3d 6daf 293e b14d fa3d
00000230: 5b96 5c3e 6580 2f3a ec3f 36be 8cb7 173e
00000240: b40f 8e3e 3d50 0abe 771a 06be 9823 933d
00000250: f889 063e 17cd 3d3e ffd5 213e d3f5 dabe
00000260: 29af 8abe e51f 0cbf 9ab0 8dbc 0c56 243e
00000270: 5b94 92bd f161 79be 710b c6be f57f 2bbe
00000280: aee1 7bbb 3a89 c1be cce3 6abd 7511 06bf
00000290: 5ba0 223d 59d1 dcbe a967 973e 2750 a9bd
000002a0: 3c1f 313e 9c37 a33e 108e 8dbe e38c a9be
000002b0: 334f c3bc 8cc6 993e eb9a 74bd b3e4 ac3c
000002c0: 8319 b9be 8490 4b3e 7586 44bd 4a5c cb3d
000002d0: 5915 12be a261 acbe 9be4 373e 26dc 053e
000002e0: 04f2 a3be b817 173e cc25 203e 9a2f 693e
000002f0: f716 a9bc 7b42 dcbe 2edf d43b 0689 063e
00000300: e847 073e 2578 dabd f046 003e bb5a db3e
00000310: 68c6 393e 040d 573e bdf2 38be 8347 3d3e
00000320: 9f94 16bf c5e5 193f e090 673e 2407 133e
00000330: b0b0 fd3b 0a05 923e 7e99 24be 85e3 503d
00000340: 3f08 d13e 26d7 93be 6a48 2abe 1bb6 eabb
00000350: f42b 0fbd 863f ddbe daa4 283e 5b16 54bd
00000360: 4d91 0bbf 6ffd 04bd ac61 363e 1e0c 503e
00000370: ffa2 bcbe 9928 293e 8194 02bf 1d6b d13e
00000380: 5120 aa3e 8385 f8bd ac0a a23e a4a1 503d
00000390: 6de2 12bf 2884 03bd 8fd8 973d 3e77 5c3e
000003a0: 69fa 68be 466c 4fbe a87b 7abe c608 b83d
000003b0: f759 933e c882 7fbd 808b 8d3d de59 87bd
000003c0: f877 62bd 99fe 2dbc cc7d d83c ac7d 85be
000003d0: cd82 4abe b47d ff3d 5079 d3bd 865c 9cbd
000003e0: b742 fabc cff6 e93e 7191 883d 4e2f 133c
000003f0: b765 163e 5287 afbe 98a1 413d e98b 763e

arith.constant2 f4 [64, 128]
-0.0062319334 -0.2634872 -0.041388176 0.077149205 -0.09509774 -0.14435181 0.0725828 0.29969394
-0.09273978 0.061492942 -0.08716867 0.25435683 -0.11114798 0.08740847 -0.007914455 -0.058398165
0.10196451 -0.14735119 0.03973061 0.28869393 -0.2527215 -0.1684717 -0.051469937 0.09372224
0.09817388 -0.06973026 0.22965924 0.0169662 0.16014503 -0.12696472 0.1436516 -0.024226118
0.024865791 0.18551558 -0.24551171 -0.010686666 -0.004757151 0.22107871 -0.066007 -0.11112045
-0.20194073 -0.026003808 0.1762083 -0.254457 -0.15390407 -0.12174518 0.26624593 0.14665747
0.014478069 -0.11768428 0.14214213 0.10732709 -0.096267276 -0.09001539 0.16204974 -0.111850694
-0.3385979 -0.2835579 0.064903945 -0.1736199 -0.028462574 0.28842905 0.040397957 0.26046425
0.1327226 0.1619146 -0.28312704 0.13745789 0.15050451 0.13722508 -0.17637917 0.15389962
-0.063523814 0.1541404 0.012212768 0.03710343 0.2787136 -0.083736874 -0.1761852 0.1586846
-0.035724495 0.019490736 -0.069930956 0.10306628 0.1037261 0.06268029 0.10716381 -0.0328509
-0.09389823 -0.017151956 -0.17934126 -0.038646176 0.16534023 0.022348564 -0.41470978 -0.107417956
-0.012792221 0.115484916 0.09513889 0.0005452238 0.07286232 -0.07958557 0.062125683 0.027925488
0.10142441 0.07113703 -0.14102104 -0.0141813485 0.15890579 0.19410656 -0.11384378 0.019744575
0.14875288 -0.096994184 0.101133876 -0.08554554 0.22970968 0.13483231 -0.27645174 -0.54855376
0.055207774 0.2669998 0.10447242 0.06771359 0.12068142 0.04322569 -0.112318814 0.029904094
0.2106531 0.046195403 0.14318019 0.13859439 0.051435128 0.008648474 0.0044125 0.0013089566
0.10187877 0.030799141 0.028268935 0.31571406 -0.027395204 -0.0673841 -0.19632725 0.03595227
-0.17655064 -0.026471172 -0.009061784 0.098241866 0.010437281 0.10807667 0.11525183 -0.09081137
-0.11000409 -0.13001366 0.105213456 0.20491874 -0.062554836 0.017317742 0.027398413 0.19401586
0.093643144 -0.23693058 0.029808722 -0.12204307 -0.15765454 0.2506549 0.11808231 -0.07780557
0.007120669 -0.10685838 0.091828465 -0.06464067 -0.027684987 0.037626535 -0.22913395 0.06736404
0.044208 0.0607318 -0.043698862 0.06419635 0.09389521 -0.047701795 0.060210347 0.15362488
0.041198686 0.030776346 0.13075645 -0.043934435 -0.168107 0.10683404 -0.12293362 0.020213528
0.029813886 -0.10511352 0.030684996 -0.018384892 -0.12616116 0.14809285 0.15836124 0.0053836703
-0.040160388 -0.2778587 0.13532566 0.036799487 0.13393146 0.035584748 0.095502324 -0.05362931
-0.19418535 -0.07654087 -0.054064292 -0.1104932 0.064607985 0.031473603 0.12671812 0.5201495
0.36750302 -0.07204095 -0.19320312 -0.08536487 0.120060936 0.018974435 -0.12442416 -0.061031498
-0.036108516 0.029729197 -0.055811696 -0.06820967 -0.44389847 -0.11658567 -0.034835294 0.18146597
-0.32556477 -0.17376618 0.08498849 -0.027911644 -0.07128462 -0.028478857 0.12573464 -0.08484211
0.08799426 0.06726554 -0.114469394 -0.14519487 0.04813325 0.028152814 0.0510542 0.14762495
-0.15451434 0.051777445 -0.21159114 0.16576777 -0.046800476 0.03599155 -0.09754015 -0.13092649
00000000: 3f35 ccbb cbe7 86be a686 29bd 6700 9e3d
00000010: 9bc2 c2bd f6d0 13be 4ba6 943d 7c71 993e
00000020: 5bee bdbd 06e0 7b3d 7d85 b2bd 0f3b 823e
00000030: 8da1 e3bd 3603 b33d a1ab 01bc ea32 6fbd
00000040: c5d2 d03d 3be3 16be 90bc 223d b1cf 933e
00000050: b664 81be d883 2cbe 24d2 52bd 72f1 bf3d
00000060: 630f c93d bdce 8ebd cb2b 6b3e b3fc 8a3c
00000070: 0ffd 233e 0a03 02be 6819 133e da75 c6bc
00000080: 58b3 cb3c ccf7 3d3e 6c67 7bbe 2017 2fbc
00000090: e0e1 9bbb 7562 623e ae2e 87bd 1e93 e3bd
000000a0: 8dc9 4ebe f005 d5bc f36f 343e 3048 82be
000000b0: 0799 1dbe 8955 f9bd 6351 883e 602d 163e
000000c0: 6c35 6d3c 7504 f1bd b58d 113e 4ece db3d
000000d0: c727 c5bd fd59 b8bd 5ef0 253e fa11 e5bd
000000e0: b45c adbe 802e 91be 5cec 843d 6ac9 31be
000000f0: 582a e9bc f9ac 933e 5478 253d 925b 853e
00000100: 6fe8 073e f1cc 253e 07f6 90be c3c1 0c3e
00000110: db1d 1a3e bb84 0c3e be9c 34be dd97 1d3e
00000120: c618 82bd fbd6 1d3e 1018 483c c4f9 173d
00000130: 8db3 8e3e 3d7e abbd e569 34be 377e 223e
00000140: d953 12bd 09ab 9f3c f637 8fbd 6a14 d33d
00000150: 596e d43d 865e 803d b378 db3d aa8e 06bd
00000160: b74d c0bd 4282 8cbc 3ca5 37be 744b 1ebd
00000170: f34e 293e 5614 b73c d754 d4be f2fd dbbd
00000180: 7796 51bc 5b83 ec3d 2ed8 c23d 5aed 0e3a
00000190: d738 953d c2fd a2bd 8077 7e3d fec3 e43c
000001a0: 9ab7 cf3d 4bb0 913d d267 10be e358 68bc
000001b0: 33b8 223e dfc3 463e ed26 e9bd 60bf a13c
000001c0: ad52 183e e3a4 c6bd 471f cf3d 8032 afbd
000001d0: 0439 6b3e 7b11 0a3e 158b 8dbe 056e 0cbf
000001e0: 8c21 623d 33b4 883e a3f5 d53d 6cad 8a3d
000001f0: d227 f73d 6c0d 313d 6807 e6bd 6ef9 f43c
00000200: 72b5 573e 6437 3d3d d49d 123e b0eb 0d3e
00000210: a4ad 523d 54b2 0d3c bc96 903b 4c91 ab3a
00000220: d1a5 d03d 7b4e fc3c 4194 e73c 46a5 a13e
00000230: e86b e0bc ad00 8abd 030a 49be b042 133d
00000240: b1c9 34be 12da d8bc e077 14bc 0833 c93d
00000250: 2101 2b3c 4d57 dd3d 2709 ec3d 50fb b9bd
00000260: d349 e1bd 4d22 05be 277a d73d 38d6 513e
00000270: c01c 80bd f0dd 8d3c a372 e03c 18ac 463e
00000280: fac7 bf3d ee9d 72be 6c31 f43c b8f1 f9bd
00000290: 3170 21be d755 803e 23d5 f13d 8758 9fbd
000002a0: 8054 e93b 91d8 dabd 9010 bc3d 5462 84bd
000002b0: a0cb e2bc 481e 1a3d 17a2 6abe 28f6 893d
000002c0: 7313 353d e8c1 783d 94fd 32bd 6079 833d
000002d0: 224c c03d f562 43bd 209f 763d d74f 1d3e
000002e0: f4bf 283d ad1e fc3c 05e5 053e 98f4 33bd
000002f0: 3e24 2cbe cecb da3d 9fc4 fbbd d796 a53c
00000300: 403c f43c c245 d7bd 1a5f fb3c ea9b 96bc
00000310: 6430 01be a7a5 173e 7329 223e 8069 b03b
00000320: 387f 24bd 7f43 8ebe cf92 0a3e 0fbb 163d
00000330: 5425 093e 50c1 113d b996 c33d 68aa 5bbd
00000340: 86d8 46be 76c1 9cbd 8572 5dbd 424a e2bd
00000350: 3151 843d 77ea 003d 65c2 013e 8528 053f
00000360: 5b29 bc3e 358a 93bd 0ad7 45be c7d3 aebd
00000370: 82e2 f53d 4670 9b3c 18d2 febd 2afc 79bd
00000380: 86e6 13bd a58a f33c ce9a 64bd 83b1 8bbd
00000390: a946 e3be 78c4 eebd 74af 0ebd 37d2 393e
000003a0: 6db0 a6be c3ef 31be 720e ae3d f6a6 e4bc
000003b0: acfd 91bd 7e4c e9bc 95c0 003e b3c1 adbd
000003c0: 5636 b43d 84c2 893d ee6e eabd f7ad 14be
000003d0: 5f27 453d bba0 e63c 351e 513d ff2a 173e
000003e0: 0239 1ebe 9614 543d 59ab 58be 07bf 293e
000003f0: dbb1 3fbd e06b 133d 21c3 c7bd 9811 06be

arith.constant3 f4 [5]
0.09152246 -0.052724455 0.0025860907 0.023206608 -0.123719804
00000000: 2170 bb3d 99f5 57bd 677b 293b c91b be3c
00000010: cf60 fdbd

arith.constant4 f4 [32]
-0.103791356 0.04687794 0.10272206 0.17309208 -0.10480276 0.092895016 0.16069473 0.15574768
0.12066275 0.15259641 0.1196084 0.06687639 0.18387623 0.2549958 0.06347399 0.0981711
0.017960196 0.06405619 0.22805615 0.05527649 -0.048533708 0.07627558 0.08144916 0.052693866
0.10273339 0.16545002 -0.04753097 0.08696818 0.09714202 -0.18647504 0.106723435 0.18619011
00000000: 9090 d4bd 1503 403d f25f d23d 0d3f 313e
00000010: d4a2 d6bd be3f be3d 298d 243e 527c 1f3e
00000020: 081e f73d 3c42 1c3e 40f5 f43d 7df6 883d
00000030: 0d4a 3c3e cf8e 823e a7fe 813d ee0d c93d
00000040: 4321 933c e42f 833d 8d87 693e 9a69 623d
00000050: 48cb 46bd 5f36 9c3d d1ce a63d 86d5 573d
00000060: e265 d23d bb6b 293e d6af 42bd 601c b23d
00000070: 65f2 c63d 50f3 3ebe d191 da3d 9fa8 3e3e

sequential_1/dense_1_2/BiasAdd/ReadVariableOp f4 [64]
0.110964686 0.13124804 0.22781108 0.017702503 0.22913925 -0.031894773 0.056371395 0.014223618
-0.07988963 0.06806267 -0.02947449 0.12400737 0.02582171 -0.04122384 -0.18613626 -0.06897016
0.07303646 -0.14075789 -0.20765659 0.075480565 -0.030401532 -0.053213175 0.051811416 0.18795474
0.0023052047 0.20193122 -0.03328024 0.0212169 -0.039649744 0.09787914 -0.020463401 0.09058866
0.06891666 0.24376231 0.15767197 0.085646145 -0.08209092 0.24612494 0.0076271445 0.07384837
-0.046072565 0.06532902 -0.0643324 0.20026702 -0.0038508407 0.11231587 -0.056221314 0.0067730322
0.15979066 0.11759395 0.08664843 0.107326455 -0.05219416 0.05198769 0.011664157 0.052505367
0.12466376 0.0022103544 0.040268358 -0.002352557 0.13136844 -0.155415 -0.010480816 0.0055123563
00000000: 7441 e33d e365 063e 4f47 693e d704 913c
00000010: 7ba3 6a3e 18a4 02bd b1e5 663d 2e0a 693c
00000020: 2d9d a3bd 7164 8b3d 7c74 f1bc 93f7 fd3d
00000030: 0d88 d33c 54da 28bd 819a 3ebe 3a40 8dbd
00000040: 2494 953d d622 10be eea3 54be 8e95 9a3d
00000050: a20c f9bc 0ff6 59bd 3538 543d 3577 403e
00000060: eb12 173b 0fc7 4e3e dc50 08bd 10cf ad3c
00000070: c567 22bd dc74 c83d dda2 a7bc 8c86 b93d
00000080: 2e24 8d3d d49c 793e c374 213e 3f67 af3d
00000090: 491f a8bd 2d08 7c3e 20ed f93b d03d 973d
000000a0: 96b6 3cbd 39cb 853d b5c0 83bd cc12 4d3e
000000b0: 635e 7cbb dd05 e63d 5248 66bd 50f0 dd3b
000000c0: 2aa0 233e 19d5 f03d bb74 b13d f9cd db3d
000000d0: 8bc9 55bd 0bf1 543d 051b 3f3c de0f 573d
000000e0: b74f ff3d 98db 103b 6ff0 243d 5b2d 1abb
000000f0: 7385 063e 1c25 1fbe bab7 2bbc ffa0 b43b

sequential_1/dense_1/BiasAdd/ReadVariableOp f4 [128]
0.04339729 0.11416236 0.0103181265 -0.011773209 0.0 0.034711007 -0.09619649 0.023667047
0.072202906 -0.14724022 0.042104404 0.071047544 0.0 -0.007774154 -0.07981643 0.0
0.0025455903 0.040318124 0.0 -0.0025892665 0.0548408 0.005229884 0.08083443 -0.007901992
-0.057876073 -0.012330047 0.015147754 0.01733477 -0.004971142 -0.011372082 0.010117662 0.05461217
-0.0051217135 -0.07470119 -0.036897857 0.0 0.0 0.078747526 -0.058184206 -0.018295404
0.039400354 -0.009684913 0.05429686 -0.13416192 0.034576893 0.10052537 0.03458671 -0.026316201
-0.11512951 0.0 0.0 0.0 0.0 -0.15400618 0.07844316 0.0
-0.08119941 0.059244152 -0.0015566974 -0.0053438945 0.0 0.062891886 -0.0069137523 0.033813514
0.0 -0.02867412 0.045050967 -0.010251442 -0.008370342 0.0 0.033540625 0.0
0.0 -0.09378617 -0.0061713234 -0.08656749 0.069147035 0.12338784 -0.012659447 0.11259522
-0.1132296 -0.0705333 -0.12566356 0.046998516 -0.033265874 -0.0076209763 0.07436894 0.08444649
0.17210409 -0.04327692 -0.16515984 -0.0051098634 0.0 0.0912991 0.12112176 -0.012208292
-0.021244192 -0.009348036 0.0 -0.039698288 0.017216107 0.027262727 -0.0052271825 0.0648865
0.012297127 -0.11614828 -0.08842592 0.0826052 -0.0926159 0.06618332 -0.022051284 0.0
0.0 0.11142432 -0.007928484 -0.11748084 0.09618971 0.08409138 0.0015412316 -0.06467806
0.0 0.13128626 -0.00071081566 0.0 -0.083953485 -0.07226233 -0.097404666 0.056447726
00000000: 5bc1 313d f5cd e93d 5c0d 293c 6be4 40bc
00000010: 0000 0000 212d 0e3d aa02 c5bd 65e1 c13c
00000020: 1edf 933d 24c6 16be ab75 2c3d 6081 913d
00000030: 0000 0000 55be febb cc76 a3bd 0000 0000
00000040: ebd3 263b 9e24 253d 0000 0000 afb0 29bb
00000050: bfa0 603d 725f ab3b 868c a53d 5b77 01bc
00000060: 760f 6dbd f703 4abc 492e 783c a601 8e3c
00000070: f6e4 a2bb f851 3abc 8dc4 253c 03b1 5f3d
00000080: 0cd4 a7bb f0fc 98bd 3522 17bd 0000 0000
00000090: 0000 0000 6246 a13d 9052 6ebd 3ee0 95bc
000000a0: 4462 213d 78ad 1ebc 6266 5e3d be61 09be
000000b0: 80a0 0d3d 3fe0 cd3d cbaa 0d3d 1395 d7bc
000000c0: 05c9 ebbd 0000 0000 0000 0000 0000 0000
000000d0: 0000 0000 ccb3 1dbe cfa6 a03d 0000 0000
000000e0: e04b a6bd ffa9 723d 190a ccba d61b afbb
000000f0: 0000 0000 76cd 803d c28c e2bb 0a80 0a3d
00000100: 0000 0000 fde5 eabc 5d87 383d aaf5 27bc
00000110: c223 09bc 0000 0000 e561 093d 0000 0000
00000120: 0000 0000 f712 c0bd d038 cabb 4c4a b1bd
00000130: f69c 8d3d c4b2 fc3d 9269 4fbc 5398 e63d
00000140: ece4 e7bd c373 90bd f3ad 00be 8481 403d
00000150: cc41 08bd 62b9 f9bb be4e 983d 48f2 ac3d
00000160: 0e3c 303e 2443 31bd a91f 29be a470 a7bb
00000170: 0000 0000 06fb ba3d af0e f83d 4a05 48bc
00000180: 4d08 aebc 8128 19bc 0000 0000 ac9a 22bd
00000190: cb08 8d3c 1556 df3c c948 abbb 37e3 843d
000001a0: e479 493c 26df edbd a618 b5bd ea2c a93d
000001b0: 68ad bdbd 1f8b 873d e5a4 b4bc 0000 0000
000001c0: 0000 0000 6f32 e43d 79e6 01bc cb99 f0bd
000001d0: 1cff c43d 1a38 ac3d 2703 ca3a ee75 84bd
000001e0: 0000 0000 e86f 063e 0856 3aba 0000 0000
000001f0: ceef abbd 46fe 93bd 197c c7bd bb35 673d

sequential_1/dense_1/MatMul f4 [128, 63]
-0.16212693 0.03444099 -0.1952802 -0.037939604 -0.06976615 0.25810042 -0.06853846 0.05133155
0.21666923 0.14873143 0.024815205 0.13854247 0.14463107 0.3036663 0.023181831 0.08157264
-0.352656 -0.1330564 0.019698456 -0.19526927 -0.16138564 0.063305415 0.23591428 -0.011113678
-0.08924573 0.110494874 -0.0069897813 -0.03120574 -0.19885069 -0.0083916 0.14086975 -0.33723733
-0.02524435 0.18493739 -0.20203608 0.17039609 0.0452508 0.014371047 0.06134404 0.09188621
-0.007087471 -0.2873573 -0.186817 -0.22534372 -0.0095792385 0.13192686 -0.10862104 0.04777971
-0.043834522 -0.020548547 -0.15194279 -0.06688358 0.17334591 -0.0689056 0.10740544 -0.12074263
-0.009892315 -0.088895366 0.06870824 0.030844202 0.002207576 0.04217685 0.11903196 -0.18560953
-0.106442586 -0.1461482 -0.07024688 0.0023993098 -0.18020414 0.07018797 0.20013759 0.036796086
0.097691126 0.0017518143 -0.135609 -0.038546212 0.11506113 0.0006526423 0.116178446 -0.18754059
-0.13881887 -0.099806 0.17679137 -0.21029796 0.06795957 0.25476837 -0.12588176 -0.14680128
0.2659542 0.03584462 0.12382566 -0.12235699 -0.14894775 0.018035047 -0.09247691 0.035848133
-0.17530161 0.18806028 -0.017890781 -0.00012080698 0.107211225 0.009332967 -0.05446111 -0.112829514
0.14419377 -0.04176604 0.08655061 -0.08964936 -0.026695546 -0.045196194 0.12940066 -0.12194675
-0.020622818 -0.054627612 0.050287206 -0.08887338 -0.161504 -0.2452833 -0.054452673 -0.009901556
-0.014023419 0.14443846 0.1564765 -0.001998511 -0.19858947 0.22091542 0.003968216 -0.086622484
0.15890966 -0.14034186 0.18996643 -0.17030609 0.16541488 0.06419194 -0.08586522 0.060344134
-0.014626373 0.10561543 0.10101197 0.095518045 -0.12742469 -0.09595117 -0.12858841 -0.020716477
0.14641757 0.08806431 0.118101284 -0.050304133 -0.13275373 -0.068444476 0.09141837 -0.09855261
-0.1264447 -0.07310387 0.14229639 -0.16268438 -0.09858219 -0.1725303 0.10915732 -0.11181138
0.012442328 -0.16003385 0.06261955 -0.19484866 0.12412116 0.068932645 0.13233852 -0.059589703
-0.07475512 0.104874544 -0.1207768 -0.11635104 -0.08224536 0.071070254 0.097905695 0.091790594
-0.024162643 -0.06865476 -0.08708809 0.15470296 0.1316725 0.13797133 -0.023138668 -0.1543662
0.123202056 -0.18591075 -0.18268023 -0.07602459 -0.061038863 0.12408884 0.065430276 -0.050873164
0.009775109 -0.089211166 -0.14047708 -0.18056065 0.09434866 0.08751292 0.121780165 0.15067126
0.024162736 0.05540985 -0.12885083 0.09530118 -0.098449044 0.09253268 -0.18703464 0.16298509
0.15758564 -0.050424542 0.003969539 -0.025996756 0.023464344 0.021125074 -0.016777117 -0.18574743
-0.104368225 0.06377945 -0.10258726 -0.14344826 0.09179362 -0.0031765332 -0.14879511 -0.17407292
0.017133081 0.12955646 -0.106935725 0.05874217 -0.089928076 0.15774165 0.11571388 -0.12383547
0.020392867 -0.07952003 0.029782908 -0.031868257 -0.017143574 -0.11831037 -0.045190185 -0.00087612914
-0.095005296 -0.17306495 0.1149276 0.030728767 0.037107095 0.06852307 -0.14542869 -0.05236731
-0.06574388 -0.119052365 0.04830671 0.0995833 0.09898317 -0.090383574 -0.10299861 -0.044157088
00000000: 9a04 26be ff11 0d3d 88f7 47be 8f66 1bbd
00000010: 8ee1 8ebd bd25 843e e45d 8cbd 0841 523d
00000020: 8ade 5d3e 0d4d 183e 4249 cb3c 14de 0d3e
00000030: 2b1a 143e 267a 9b3e d3e7 bd3c 8e0f a73d
00000040: 548f b4be f03f 08be a85e a13c abf4 47be
00000050: 4742 25be 45a6 813d 8393 713e 2516 36bc
00000060: 77c6 b6bd 234b e23d 890a e5bb 2ea3 ffbc
00000070: 849f 4bbe ec7c 09bc 2940 103e 5faa acbe
00000080: 3dcd cebc 3a60 3d3e 8ce2 4ebe 507c 2e3e
00000090: e758 393d 8a74 6b3c e343 7b3d d62e bc3d
000000a0: 043e e8bb 7f20 93be f54c 3fbe 81c0 66be
000000b0: 3df2 1cbc d617 073e b574 debd a8b4 433d
000000c0: d48b 33bd 6d55 a8bc e496 1bbe 42fa 88bd
000000d0: 9781 313e 611e 8dbd 62f7 db3d e947 f7bd
000000e0: 6013 22bc c60e b6bd e8b6 8c3d fbac fc3c
000000f0: fbac 103b a2c1 2c3d 07c7 f33d 6d10 3ebe
00000100: 92fe d9bd e0a7 15be 99dd 8fbd bd3d 1d3b
00000110: 6f87 38be b6be 8f3d def0 4c3e 7eb7 163d
00000120: 4912 c83d 229d e53a 16dd 0abe a2e2 1dbd
00000130: 2ba5 eb3d 1516 2b3a f7ee ed3d a40a 40be
00000140: 8926 0ebe 1767 ccbd cc08 353e 5958 57be
00000150: 632e 8b3d 0071 823e 26e7 00be 1353 16be
00000160: 262b 883e cfd1 123d 4f98 fd3d 4d96 fabd
00000170: c285 18be 3cbe 933c 8964 bdbd 7ed5 123d
00000180: 4482 33be e092 403e b08f 92bc c159 fdb8
00000190: 8f91 db3d 4de9 183c 9d12 5fbd 2913 e7bd
000001a0: 88a7 133e de12 2bbd 7241 b13d 159a b7bd
000001b0: 9eb0 dabc a51f 39bd 9b81 043e 38bf f9bd
000001c0: 2ff1 a8bc 34c1 5fbd f5f9 4d3d 3f03 b6bd
000001d0: 4e61 25be 8c2b 7bbe c409 5fbd 233a 22bc
000001e0: 7bc2 65bc ade7 133e 603b 203e 73f9 02bb
000001f0: 0a5b 4bbe a737 623e cf07 823b 2167 b1bd
00000200: 37b9 223e c7b5 0fbe 8f86 423e b864 2ebe
00000210: 8562 293e 1077 833d 1bda afbd 692b 773d
00000220: 74a3 6fbc e74c d83d 5ddf ce3d f79e c33d
00000230: 9e7b 02be 0c82 c4bd aeac 03be 9ab5 a9bc
00000240: 7dee 153e 105b b43d 16df f13d b50b 4ebd
00000250: 98f0 07be 9e2c 8cbd 8e39 bb3d f3d5 c9bd
00000260: b87a 01be 7bb7 95bd 25b6 113e bc96 26be
00000270: 76e5 c9bd c8ab 30be df8d df3d 5dfd e4bd
00000280: e8da 4b3c eadf 23be ae3e 803d 6886 47be
00000290: 3c33 fe3d 8f2c 8d3d c083 073e 5514 74bd
000002a0: 3619 99bd 77c8 d63d d459 f7bd 7449 eebd
000002b0: 4170 a8bd 488d 913d c882 c83d b5fc bb3d
000002c0: bcf0 c5bc de9a 8cbd 3e5b b2bd 746a 1e3e
000002d0: 28d5 063e 5b48 0d3e 4e8d bdbc 2c12 1ebe
000002e0: 5c51 fc3d 635f 3ebe 8710 3bbe c8b2 9bbd
000002f0: e303 7abd 4a22 fe3d 4f00 863d 6160 50bd
00000300: c727 203c 58b4 b6bd 39d9 0fbe e4e4 38be
00000310: df39 c13d f939 b33d e167 f93d 9149 1a3e
00000320: eef0 c53c 70f5 623d 79f1 03be 442d c33d
00000330: a79f c9bd c681 bd3d 0286 3fbe 90e5 263e
00000340: 215e 213e f789 4ebd e812 823b 26f7 d4bc
00000350: 4c38 c03c 7e0e ad3c 2a70 89bc 9334 3ebe
00000360: 02bf d5bd cd9e 823d 4519 d2bd 1ae4 12be
00000370: 4bfe bb3d 622d 50bb bf5d 18be 2c40 32be
00000380: ad5a 8c3c 73aa 043e 1e01 dbbd a19b 703d
00000390: 362c b8bd 0787 213e 66fb ec3d 739d fdbd
000003a0: f10e a73c 66db a2bd 49fb f33c 4a88 02bd
000003b0: ae70 8cbc b54c f2bd 5819 39bd 08ac 65ba
000003c0: 2392 c2bd f037 31be 295f eb3d e5ba fb3c
000003d0: 9cfd 173d d355 8c3d 42eb 14be 1b7f 56bd
000003e0: baa4 86bd bad1 f3bd 42dd 453d 54f2 cb3d
000003f0: b0b7 ca3d 061b b9bd eff0 d2bd 10de 34bd
